data/QMruncolMix2_Akernel_ssrgaOri20.npz (npz, 64244 bytes, 5 tensors)

hst f8 [76, 99]
1039.0 1042.0 1036.0 1120.0 1236.0 1412.0 1536.0 1778.0
1670.0 1961.0 1899.0 2157.0 2091.0 2550.0 3137.0 4339.0
4058.0 14776.0 30495.0 7893.0 8076.0 6346.0 5681.0 3801.0
3175.0 1108.0 1202.0 1279.0 1267.0 1180.0 964.0 908.0
724.0 724.0 652.0 603.0 564.0 471.0 423.0 389.0
360.0 451.0 297.0 304.0 305.0 278.0 364.0 287.0
271.0 352.0 328.0 363.0 387.0 349.0 299.0 290.0
350.0 322.0 268.0 258.0 266.0 268.0 213.0 259.0
239.0 181.0 223.0 159.0 157.0 185.0 199.0 216.0
257.0 95.0 96.0 106.0 77.0 103.0 82.0 91.0
99.0 113.0 105.0 126.0 105.0 76.0 152.0 330.0
130.0 90.0 99.0 94.0 83.0 100.0 86.0 78.0
83.0 81.0 795.0 985.0 1024.0 1046.0 1205.0 1255.0
1249.0 1375.0 1499.0 1941.0 2108.0 1727.0 2084.0 2165.0
3188.0 3923.0 3765.0 4857.0 15957.0 32608.0 6755.0 6887.0
5858.0 5383.0 3727.0 3587.0 3010.0 2095.0 1260.0 1177.0
775.0 647.0 602.0 560.0 408.0 382.0 390.0 378.0
292.0 356.0 292.0 328.0 361.0 358.0 432.0 311.0
229.0 220.0 255.0 233.0 260.0 225.0 170.0 159.0
219.0 182.0 117.0 164.0 291.0 203.0 218.0 188.0
133.0 139.0 130.0 115.0 125.0 104.0 106.0 110.0
124.0 163.0 134.0 120.0 138.0 114.0 147.0 122.0
132.0 135.0 159.0 160.0 157.0 138.0 150.0 180.0
155.0 189.0 112.0 122.0 230.0 125.0 126.0 107.0
232.0 185.0 185.0 171.0 128.0 798.0 891.0 992.0
1262.0 1044.0 1305.0 1002.0 1086.0 1114.0 1294.0 1796.0
1991.0 2388.0 2517.0 2703.0 3075.0 3366.0 3105.0 15346.0
34337.0 7619.0 8202.0 7134.0 6519.0 2651.0 3060.0 2130.0
1447.0 1108.0 1308.0 874.0 936.0 728.0 702.0 679.0
572.0 492.0 464.0 428.0 381.0 398.0 385.0 359.0
312.0 292.0 257.0 240.0 220.0 216.0 202.0 233.0
189.0 209.0 188.0 197.0 160.0 172.0 129.0 153.0
00000000: 0000 0000 003c 9040 0000 0000 0048 9040
00000010: 0000 0000 0030 9040 0000 0000 0080 9140
00000020: 0000 0000 0050 9340 0000 0000 0010 9640
00000030: 0000 0000 0000 9840 0000 0000 00c8 9b40
00000040: 0000 0000 0018 9a40 0000 0000 00a4 9e40
00000050: 0000 0000 00ac 9d40 0000 0000 00da a040
00000060: 0000 0000 0056 a040 0000 0000 00ec a340
00000070: 0000 0000 0082 a840 0000 0000 00f3 b040
00000080: 0000 0000 00b4 af40 0000 0000 00dc cc40
00000090: 0000 0000 c0c7 dd40 0000 0000 00d5 be40
000000a0: 0000 0000 008c bf40 0000 0000 00ca b840
000000b0: 0000 0000 0031 b640 0000 0000 00b2 ad40
000000c0: 0000 0000 00ce a840 0000 0000 0050 9140
000000d0: 0000 0000 00c8 9240 0000 0000 00fc 9340
000000e0: 0000 0000 00cc 9340 0000 0000 0070 9240
000000f0: 0000 0000 0020 8e40 0000 0000 0060 8c40
00000100: 0000 0000 00a0 8640 0000 0000 00a0 8640
00000110: 0000 0000 0060 8440 0000 0000 00d8 8240
00000120: 0000 0000 00a0 8140 0000 0000 0070 7d40
00000130: 0000 0000 0070 7a40 0000 0000 0050 7840
00000140: 0000 0000 0080 7640 0000 0000 0030 7c40
00000150: 0000 0000 0090 7240 0000 0000 0000 7340
00000160: 0000 0000 0010 7340 0000 0000 0060 7140
00000170: 0000 0000 00c0 7640 0000 0000 00f0 7140
00000180: 0000 0000 00f0 7040 0000 0000 0000 7640
00000190: 0000 0000 0080 7440 0000 0000 00b0 7640
000001a0: 0000 0000 0030 7840 0000 0000 00d0 7540
000001b0: 0000 0000 00b0 7240 0000 0000 0020 7240
000001c0: 0000 0000 00e0 7540 0000 0000 0020 7440
000001d0: 0000 0000 00c0 7040 0000 0000 0020 7040
000001e0: 0000 0000 00a0 7040 0000 0000 00c0 7040
000001f0: 0000 0000 00a0 6a40 0000 0000 0030 7040
00000200: 0000 0000 00e0 6d40 0000 0000 00a0 6640
00000210: 0000 0000 00e0 6b40 0000 0000 00e0 6340
00000220: 0000 0000 00a0 6340 0000 0000 0020 6740
00000230: 0000 0000 00e0 6840 0000 0000 0000 6b40
00000240: 0000 0000 0010 7040 0000 0000 00c0 5740
00000250: 0000 0000 0000 5840 0000 0000 0080 5a40
00000260: 0000 0000 0040 5340 0000 0000 00c0 5940
00000270: 0000 0000 0080 5440 0000 0000 00c0 5640
00000280: 0000 0000 00c0 5840 0000 0000 0040 5c40
00000290: 0000 0000 0040 5a40 0000 0000 0080 5f40
000002a0: 0000 0000 0040 5a40 0000 0000 0000 5340
000002b0: 0000 0000 0000 6340 0000 0000 00a0 7440
000002c0: 0000 0000 0040 6040 0000 0000 0080 5640
000002d0: 0000 0000 00c0 5840 0000 0000 0080 5740
000002e0: 0000 0000 00c0 5440 0000 0000 0000 5940
000002f0: 0000 0000 0080 5540 0000 0000 0080 5340
00000300: 0000 0000 00c0 5440 0000 0000 0040 5440
00000310: 0000 0000 00d8 8840 0000 0000 00c8 8e40
00000320: 0000 0000 0000 9040 0000 0000 0058 9040
00000330: 0000 0000 00d4 9240 0000 0000 009c 9340
00000340: 0000 0000 0084 9340 0000 0000 007c 9540
00000350: 0000 0000 006c 9740 0000 0000 0054 9e40
00000360: 0000 0000 0078 a040 0000 0000 00fc 9a40
00000370: 0000 0000 0048 a040 0000 0000 00ea a040
00000380: 0000 0000 00e8 a840 0000 0000 00a6 ae40
00000390: 0000 0000 006a ad40 0000 0000 00f9 b240
000003a0: 0000 0000 802a cf40 0000 0000 00d8 df40
000003b0: 0000 0000 0063 ba40 0000 0000 00e7 ba40
000003c0: 0000 0000 00e2 b640 0000 0000 0007 b540
000003d0: 0000 0000 001e ad40 0000 0000 0006 ac40
000003e0: 0000 0000 0084 a740 0000 0000 005e a040
000003f0: 0000 0000 00b0 9340 0000 0000 0064 9240
00000400: 0000 0000 0038 8840 0000 0000 0038 8440
00000410: 0000 0000 00d0 8240 0000 0000 0080 8140
00000420: 0000 0000 0080 7940 0000 0000 00e0 7740
00000430: 0000 0000 0060 7840 0000 0000 00a0 7740
00000440: 0000 0000 0040 7240 0000 0000 0040 7640
00000450: 0000 0000 0040 7240 0000 0000 0080 7440
00000460: 0000 0000 0090 7640 0000 0000 0060 7640
00000470: 0000 0000 0000 7b40 0000 0000 0070 7340
00000480: 0000 0000 00a0 6c40 0000 0000 0080 6b40
00000490: 0000 0000 00e0 6f40 0000 0000 0020 6d40
000004a0: 0000 0000 0040 7040 0000 0000 0020 6c40
000004b0: 0000 0000 0040 6540 0000 0000 00e0 6340
000004c0: 0000 0000 0060 6b40 0000 0000 00c0 6640
000004d0: 0000 0000 0040 5d40 0000 0000 0080 6440
000004e0: 0000 0000 0030 7240 0000 0000 0060 6940
000004f0: 0000 0000 0040 6b40 0000 0000 0080 6740
00000500: 0000 0000 00a0 6040 0000 0000 0060 6140
00000510: 0000 0000 0040 6040 0000 0000 00c0 5c40
00000520: 0000 0000 0040 5f40 0000 0000 0000 5a40
00000530: 0000 0000 0080 5a40 0000 0000 0080 5b40
00000540: 0000 0000 0000 5f40 0000 0000 0060 6440
00000550: 0000 0000 00c0 6040 0000 0000 0000 5e40
00000560: 0000 0000 0040 6140 0000 0000 0080 5c40
00000570: 0000 0000 0060 6240 0000 0000 0080 5e40
00000580: 0000 0000 0080 6040 0000 0000 00e0 6040
00000590: 0000 0000 00e0 6340 0000 0000 0000 6440
000005a0: 0000 0000 00a0 6340 0000 0000 0040 6140
000005b0: 0000 0000 00c0 6240 0000 0000 0080 6640
000005c0: 0000 0000 0060 6340 0000 0000 00a0 6740
000005d0: 0000 0000 0000 5c40 0000 0000 0080 5e40
000005e0: 0000 0000 00c0 6c40 0000 0000 0040 5f40
000005f0: 0000 0000 0080 5f40 0000 0000 00c0 5a40
00000600: 0000 0000 0000 6d40 0000 0000 0020 6740
00000610: 0000 0000 0020 6740 0000 0000 0060 6540
00000620: 0000 0000 0000 6040 0000 0000 00f0 8840
00000630: 0000 0000 00d8 8b40 0000 0000 0000 8f40
00000640: 0000 0000 00b8 9340 0000 0000 0050 9040
00000650: 0000 0000 0064 9440 0000 0000 0050 8f40
00000660: 0000 0000 00f8 9040 0000 0000 0068 9140
00000670: 0000 0000 0038 9440 0000 0000 0010 9c40
00000680: 0000 0000 001c 9f40 0000 0000 00a8 a240
00000690: 0000 0000 00aa a340 0000 0000 001e a540
000006a0: 0000 0000 0006 a840 0000 0000 004c aa40
000006b0: 0000 0000 0042 a840 0000 0000 00f9 cd40
000006c0: 0000 0000 20c4 e040 0000 0000 00c3 bd40
000006d0: 0000 0000 0005 c040 0000 0000 00de bb40
000006e0: 0000 0000 0077 b940 0000 0000 00b6 a440
000006f0: 0000 0000 00e8 a740 0000 0000 00a4 a040
00000700: 0000 0000 009c 9640 0000 0000 0050 9140
00000710: 0000 0000 0070 9440 0000 0000 0050 8b40
00000720: 0000 0000 0040 8d40 0000 0000 00c0 8640
00000730: 0000 0000 00f0 8540 0000 0000 0038 8540
00000740: 0000 0000 00e0 8140 0000 0000 00c0 7e40
00000750: 0000 0000 0000 7d40 0000 0000 00c0 7a40
00000760: 0000 0000 00d0 7740 0000 0000 00e0 7840
00000770: 0000 0000 0010 7840 0000 0000 0070 7640
00000780: 0000 0000 0080 7340 0000 0000 0040 7240
00000790: 0000 0000 0010 7040 0000 0000 0000 6e40
000007a0: 0000 0000 0080 6b40 0000 0000 0000 6b40
000007b0: 0000 0000 0040 6940 0000 0000 0020 6d40
000007c0: 0000 0000 00a0 6740 0000 0000 0020 6a40
000007d0: 0000 0000 0080 6740 0000 0000 00a0 6840
000007e0: 0000 0000 0000 6440 0000 0000 0080 6540
000007f0: 0000 0000 0020 6040 0000 0000 0020 6340

xcenter f8 [99]
-10.972222222222221 -10.916666666666668 -10.86111111111111 -10.805555555555557 -10.75 -10.694444444444443 -10.63888888888889 -10.583333333333332
-10.527777777777779 -10.472222222222221 -10.416666666666668 -10.36111111111111 -10.305555555555557 -10.25 -10.194444444444443 -10.13888888888889
-10.083333333333332 -10.027777777777779 -9.972222222222221 -9.916666666666668 -9.86111111111111 -9.805555555555557 -9.75 -9.694444444444443
-9.63888888888889 -9.583333333333332 -9.527777777777779 -9.472222222222221 -9.416666666666668 -9.36111111111111 -9.305555555555557 -9.25
-9.194444444444443 -9.13888888888889 -9.083333333333332 -9.027777777777779 -8.972222222222221 -8.916666666666668 -8.86111111111111 -8.805555555555557
-8.75 -8.694444444444445 -8.63888888888889 -8.583333333333332 -8.527777777777779 -8.472222222222221 -8.416666666666668 -8.36111111111111
-8.305555555555557 -8.25 -8.194444444444445 -8.13888888888889 -8.083333333333332 -8.027777777777779 -7.972222222222222 -7.916666666666667
-7.861111111111112 -7.805555555555556 -7.75 -7.694444444444445 -7.638888888888889 -7.583333333333333 -7.527777777777778 -7.472222222222222
-7.416666666666667 -7.361111111111112 -7.305555555555556 -7.25 -7.194444444444445 -7.138888888888889 -7.083333333333333 -7.027777777777778
-6.972222222222222 -6.916666666666667 -6.861111111111112 -6.805555555555555 -6.75 -6.694444444444445 -6.638888888888889 -6.583333333333334
-6.527777777777778 -6.472222222222222 -6.416666666666667 -6.361111111111112 -6.305555555555555 -6.25 -6.194444444444445 -6.138888888888889
-6.083333333333334 -6.027777777777779 -5.972222222222222 -5.916666666666667 -5.861111111111112 -5.805555555555555 -5.75 -5.694444444444445
-5.638888888888889 -5.583333333333334 -5.527777777777779
00000000: 1cc7 711c c7f1 25c0 5655 5555 55d5 25c0
00000010: 8ee3 388e e3b8 25c0 c871 1cc7 719c 25c0
00000020: 0000 0000 0080 25c0 388e e338 8e63 25c0
00000030: 721c c771 1c47 25c0 aaaa aaaa aa2a 25c0
00000040: e438 8ee3 380e 25c0 1cc7 711c c7f1 24c0
00000050: 5655 5555 55d5 24c0 8ee3 388e e3b8 24c0
00000060: c871 1cc7 719c 24c0 0000 0000 0080 24c0
00000070: 388e e338 8e63 24c0 721c c771 1c47 24c0
00000080: aaaa aaaa aa2a 24c0 e438 8ee3 380e 24c0
00000090: 1cc7 711c c7f1 23c0 5655 5555 55d5 23c0
000000a0: 8ee3 388e e3b8 23c0 c871 1cc7 719c 23c0
000000b0: 0000 0000 0080 23c0 388e e338 8e63 23c0
000000c0: 721c c771 1c47 23c0 aaaa aaaa aa2a 23c0
000000d0: e438 8ee3 380e 23c0 1cc7 711c c7f1 22c0
000000e0: 5655 5555 55d5 22c0 8ee3 388e e3b8 22c0
000000f0: c871 1cc7 719c 22c0 0000 0000 0080 22c0
00000100: 388e e338 8e63 22c0 721c c771 1c47 22c0
00000110: aaaa aaaa aa2a 22c0 e438 8ee3 380e 22c0
00000120: 1cc7 711c c7f1 21c0 5655 5555 55d5 21c0
00000130: 8ee3 388e e3b8 21c0 c871 1cc7 719c 21c0
00000140: 0000 0000 0080 21c0 398e e338 8e63 21c0
00000150: 721c c771 1c47 21c0 aaaa aaaa aa2a 21c0
00000160: e438 8ee3 380e 21c0 1cc7 711c c7f1 20c0
00000170: 5655 5555 55d5 20c0 8ee3 388e e3b8 20c0
00000180: c871 1cc7 719c 20c0 0000 0000 0080 20c0
00000190: 398e e338 8e63 20c0 721c c771 1c47 20c0
000001a0: aaaa aaaa aa2a 20c0 e438 8ee3 380e 20c0
000001b0: 398e e338 8ee3 1fc0 abaa aaaa aaaa 1fc0
000001c0: 1dc7 711c c771 1fc0 8fe3 388e e338 1fc0
000001d0: 0000 0000 0000 1fc0 721c c771 1cc7 1ec0
000001e0: e438 8ee3 388e 1ec0 5555 5555 5555 1ec0
000001f0: c771 1cc7 711c 1ec0 398e e338 8ee3 1dc0
00000200: abaa aaaa aaaa 1dc0 1dc7 711c c771 1dc0
00000210: 8fe3 388e e338 1dc0 0000 0000 0000 1dc0
00000220: 721c c771 1cc7 1cc0 e438 8ee3 388e 1cc0
00000230: 5555 5555 5555 1cc0 c771 1cc7 711c 1cc0
00000240: 398e e338 8ee3 1bc0 abaa aaaa aaaa 1bc0
00000250: 1dc7 711c c771 1bc0 8ee3 388e e338 1bc0
00000260: 0000 0000 0000 1bc0 721c c771 1cc7 1ac0
00000270: e438 8ee3 388e 1ac0 5655 5555 5555 1ac0
00000280: c771 1cc7 711c 1ac0 398e e338 8ee3 19c0
00000290: abaa aaaa aaaa 19c0 1dc7 711c c771 19c0
000002a0: 8ee3 388e e338 19c0 0000 0000 0000 19c0
000002b0: 721c c771 1cc7 18c0 e438 8ee3 388e 18c0
000002c0: 5655 5555 5555 18c0 c871 1cc7 711c 18c0
000002d0: 398e e338 8ee3 17c0 abaa aaaa aaaa 17c0
000002e0: 1dc7 711c c771 17c0 8ee3 388e e338 17c0
000002f0: 0000 0000 0000 17c0 721c c771 1cc7 16c0
00000300: e438 8ee3 388e 16c0 5655 5555 5555 16c0
00000310: c871 1cc7 711c 16c0

ycenter f8 [76]
-44.7 -44.099999999999994 -43.5 -42.89999999999999 -42.3 -41.69999999999999 -41.099999999999994 -40.499999999999986
-39.89999999999999 -39.29999999999998 -38.69999999999999 -38.09999999999998 -37.499999999999986 -36.89999999999998 -36.29999999999998 -35.699999999999974
-35.09999999999998 -34.49999999999997 -33.89999999999998 -33.29999999999997 -32.699999999999974 -32.099999999999966 -31.499999999999968 -30.899999999999967
-30.299999999999965 -29.699999999999964 -29.099999999999962 -28.49999999999996 -27.89999999999996 -27.299999999999958 -26.699999999999957 -26.099999999999955
-25.499999999999954 -24.899999999999952 -24.29999999999995 -23.69999999999995 -23.099999999999948 -22.499999999999947 -21.899999999999945 -21.299999999999944
-20.699999999999942 -20.09999999999994 -19.49999999999994 -18.899999999999938 -18.299999999999937 -17.699999999999935 -17.099999999999934 -16.499999999999932
-15.899999999999931 -15.29999999999993 -14.699999999999928 -14.099999999999927 -13.499999999999925 -12.899999999999924 -12.299999999999923 -11.699999999999921
-11.09999999999992 -10.499999999999918 -9.899999999999917 -9.299999999999915 -8.699999999999914 -8.099999999999913 -7.499999999999911 -6.89999999999991
-6.299999999999908 -5.699999999999907 -5.0999999999999055 -4.499999999999904 -3.8999999999999027 -3.2999999999999012 -2.6999999999999 -2.0999999999998984
-1.499999999999897 -0.8999999999998956 -0.29999999999989413 0.3000000000001073
00000000: 9a99 9999 9959 46c0 cccc cccc cc0c 46c0
00000010: 0000 0000 00c0 45c0 3233 3333 3373 45c0
00000020: 6666 6666 6626 45c0 9899 9999 99d9 44c0
00000030: cccc cccc cc8c 44c0 feff ffff ff3f 44c0
00000040: 3233 3333 33f3 43c0 6466 6666 66a6 43c0
00000050: 9899 9999 9959 43c0 cacc cccc cc0c 43c0
00000060: feff ffff ffbf 42c0 3033 3333 3373 42c0
00000070: 6466 6666 6626 42c0 9699 9999 99d9 41c0
00000080: cacc cccc cc8c 41c0 fcff ffff ff3f 41c0
00000090: 3033 3333 33f3 40c0 6266 6666 66a6 40c0
000000a0: 9699 9999 9959 40c0 c8cc cccc cc0c 40c0
000000b0: f7ff ffff ff7f 3fc0 5d66 6666 66e6 3ec0
000000c0: c3cc cccc cc4c 3ec0 2933 3333 33b3 3dc0
000000d0: 8f99 9999 9919 3dc0 f5ff ffff ff7f 3cc0
000000e0: 5b66 6666 66e6 3bc0 c1cc cccc cc4c 3bc0
000000f0: 2733 3333 33b3 3ac0 8d99 9999 9919 3ac0
00000100: f3ff ffff ff7f 39c0 5966 6666 66e6 38c0
00000110: bfcc cccc cc4c 38c0 2533 3333 33b3 37c0
00000120: 8b99 9999 9919 37c0 f1ff ffff ff7f 36c0
00000130: 5766 6666 66e6 35c0 bdcc cccc cc4c 35c0
00000140: 2333 3333 33b3 34c0 8999 9999 9919 34c0
00000150: efff ffff ff7f 33c0 5566 6666 66e6 32c0
00000160: bbcc cccc cc4c 32c0 2133 3333 33b3 31c0
00000170: 8799 9999 9919 31c0 edff ffff ff7f 30c0
00000180: a6cc cccc cccc 2fc0 7299 9999 9999 2ec0
00000190: 3e66 6666 6666 2dc0 0a33 3333 3333 2cc0
000001a0: d6ff ffff ffff 2ac0 a2cc cccc cccc 29c0
000001b0: 6e99 9999 9999 28c0 3a66 6666 6666 27c0
000001c0: 0633 3333 3333 26c0 d2ff ffff ffff 24c0
000001d0: 9ecc cccc cccc 23c0 6a99 9999 9999 22c0
000001e0: 3666 6666 6666 21c0 0233 3333 3333 20c0
000001f0: 9cff ffff ffff 1dc0 3499 9999 9999 1bc0
00000200: cc32 3333 3333 19c0 64cc cccc cccc 16c0
00000210: fc65 6666 6666 14c0 94ff ffff ffff 11c0
00000220: 5832 3333 3333 0fc0 8865 6666 6666 0ac0
00000230: b898 9999 9999 05c0 e8cb cccc cccc 00c0
00000240: 30fe ffff ffff f7bf 20c9 cccc cccc ecbf
00000250: c02b 3333 3333 d3bf c03a 3333 3333 d33f

xedge f8 [100]
-11.0 -10.944444444444445 -10.88888888888889 -10.833333333333334 -10.777777777777779 -10.722222222222221 -10.666666666666666 -10.61111111111111
-10.555555555555555 -10.5 -10.444444444444445 -10.38888888888889 -10.333333333333334 -10.277777777777779 -10.222222222222221 -10.166666666666666
-10.11111111111111 -10.055555555555555 -10.0 -9.944444444444445 -9.88888888888889 -9.833333333333334 -9.777777777777779 -9.722222222222221
-9.666666666666666 -9.61111111111111 -9.555555555555555 -9.5 -9.444444444444445 -9.38888888888889 -9.333333333333334 -9.277777777777779
-9.222222222222221 -9.166666666666666 -9.11111111111111 -9.055555555555555 -9.0 -8.944444444444445 -8.88888888888889 -8.833333333333334
-8.777777777777779 -8.722222222222221 -8.666666666666668 -8.61111111111111 -8.555555555555555 -8.5 -8.444444444444445 -8.38888888888889
-8.333333333333334 -8.277777777777779 -8.222222222222221 -8.166666666666668 -8.11111111111111 -8.055555555555555 -8.0 -7.944444444444445
-7.888888888888889 -7.833333333333334 -7.777777777777779 -7.722222222222222 -7.666666666666667 -7.611111111111111 -7.555555555555555 -7.5
-7.444444444444445 -7.388888888888889 -7.333333333333334 -7.277777777777779 -7.222222222222222 -7.166666666666667 -7.111111111111111 -7.055555555555555
-7.0 -6.944444444444445 -6.888888888888889 -6.833333333333334 -6.777777777777778 -6.722222222222222 -6.666666666666667 -6.611111111111112
-6.555555555555555 -6.5 -6.444444444444445 -6.388888888888889 -6.333333333333334 -6.277777777777778 -6.222222222222222 -6.166666666666667
-6.111111111111112 -6.055555555555556 -6.0 -5.944444444444445 -5.888888888888889 -5.833333333333334 -5.777777777777778 -5.722222222222222
-5.666666666666667 -5.611111111111112 -5.555555555555556 -5.5
00000000: 0000 0000 0000 26c0 398e e338 8ee3 25c0
00000010: 721c c771 1cc7 25c0 abaa aaaa aaaa 25c0
00000020: e438 8ee3 388e 25c0 1cc7 711c c771 25c0
00000030: 5555 5555 5555 25c0 8ee3 388e e338 25c0
00000040: c771 1cc7 711c 25c0 0000 0000 0000 25c0
00000050: 398e e338 8ee3 24c0 721c c771 1cc7 24c0
00000060: abaa aaaa aaaa 24c0 e438 8ee3 388e 24c0
00000070: 1cc7 711c c771 24c0 5555 5555 5555 24c0
00000080: 8ee3 388e e338 24c0 c771 1cc7 711c 24c0
00000090: 0000 0000 0000 24c0 398e e338 8ee3 23c0
000000a0: 721c c771 1cc7 23c0 abaa aaaa aaaa 23c0
000000b0: e438 8ee3 388e 23c0 1cc7 711c c771 23c0
000000c0: 5555 5555 5555 23c0 8ee3 388e e338 23c0
000000d0: c771 1cc7 711c 23c0 0000 0000 0000 23c0
000000e0: 398e e338 8ee3 22c0 721c c771 1cc7 22c0
000000f0: abaa aaaa aaaa 22c0 e438 8ee3 388e 22c0
00000100: 1cc7 711c c771 22c0 5555 5555 5555 22c0
00000110: 8ee3 388e e338 22c0 c771 1cc7 711c 22c0
00000120: 0000 0000 0000 22c0 398e e338 8ee3 21c0
00000130: 721c c771 1cc7 21c0 abaa aaaa aaaa 21c0
00000140: e438 8ee3 388e 21c0 1cc7 711c c771 21c0
00000150: 5655 5555 5555 21c0 8ee3 388e e338 21c0
00000160: c771 1cc7 711c 21c0 0000 0000 0000 21c0
00000170: 398e e338 8ee3 20c0 721c c771 1cc7 20c0
00000180: abaa aaaa aaaa 20c0 e438 8ee3 388e 20c0
00000190: 1cc7 711c c771 20c0 5655 5555 5555 20c0
000001a0: 8ee3 388e e338 20c0 c771 1cc7 711c 20c0
000001b0: 0000 0000 0000 20c0 721c c771 1cc7 1fc0
000001c0: e438 8ee3 388e 1fc0 5655 5555 5555 1fc0
000001d0: c871 1cc7 711c 1fc0 398e e338 8ee3 1ec0
000001e0: abaa aaaa aaaa 1ec0 1cc7 711c c771 1ec0
000001f0: 8ee3 388e e338 1ec0 0000 0000 0000 1ec0
00000200: 721c c771 1cc7 1dc0 e438 8ee3 388e 1dc0
00000210: 5655 5555 5555 1dc0 c871 1cc7 711c 1dc0
00000220: 398e e338 8ee3 1cc0 abaa aaaa aaaa 1cc0
00000230: 1cc7 711c c771 1cc0 8ee3 388e e338 1cc0
00000240: 0000 0000 0000 1cc0 721c c771 1cc7 1bc0
00000250: e438 8ee3 388e 1bc0 5655 5555 5555 1bc0
00000260: c771 1cc7 711c 1bc0 398e e338 8ee3 1ac0
00000270: abaa aaaa aaaa 1ac0 1dc7 711c c771 1ac0
00000280: 8ee3 388e e338 1ac0 0000 0000 0000 1ac0
00000290: 721c c771 1cc7 19c0 e438 8ee3 388e 19c0
000002a0: 5655 5555 5555 19c0 c771 1cc7 711c 19c0
000002b0: 398e e338 8ee3 18c0 abaa aaaa aaaa 18c0
000002c0: 1dc7 711c c771 18c0 8fe3 388e e338 18c0
000002d0: 0000 0000 0000 18c0 721c c771 1cc7 17c0
000002e0: e438 8ee3 388e 17c0 5655 5555 5555 17c0
000002f0: c771 1cc7 711c 17c0 398e e338 8ee3 16c0
00000300: abaa aaaa aaaa 16c0 1dc7 711c c771 16c0
00000310: 8fe3 388e e338 16c0 0000 0000 0000 16c0

yedge f8 [77]
-45.0 -44.4 -43.8 -43.199999999999996 -42.599999999999994 -41.99999999999999 -41.39999999999999 -40.79999999999999
-40.19999999999999 -39.59999999999999 -38.999999999999986 -38.399999999999984 -37.79999999999998 -37.19999999999998 -36.59999999999998 -35.99999999999998
-35.39999999999998 -34.799999999999976 -34.199999999999974 -33.59999999999997 -32.99999999999997 -32.39999999999997 -31.79999999999997 -31.199999999999967
-30.599999999999966 -29.999999999999964 -29.399999999999963 -28.79999999999996 -28.19999999999996 -27.59999999999996 -26.999999999999957 -26.399999999999956
-25.799999999999955 -25.199999999999953 -24.59999999999995 -23.99999999999995 -23.39999999999995 -22.799999999999947 -22.199999999999946 -21.599999999999945
-20.999999999999943 -20.39999999999994 -19.79999999999994 -19.19999999999994 -18.599999999999937 -17.999999999999936 -17.399999999999935 -16.799999999999933
-16.199999999999932 -15.59999999999993 -14.999999999999929 -14.399999999999928 -13.799999999999926 -13.199999999999925 -12.599999999999923 -11.999999999999922
-11.39999999999992 -10.799999999999919 -10.199999999999918 -9.599999999999916 -8.999999999999915 -8.399999999999913 -7.799999999999912 -7.1999999999999105
-6.599999999999909 -5.999999999999908 -5.399999999999906 -4.799999999999905 -4.199999999999903 -3.599999999999902 -2.9999999999999005 -2.399999999999899
-1.7999999999998977 -1.1999999999998963 -0.5999999999998948 1.0658141036401503e-13 0.600000000000108
00000000: 0000 0000 0080 46c0 3333 3333 3333 46c0
00000010: 6666 6666 66e6 45c0 9999 9999 9999 45c0
00000020: cccc cccc cc4c 45c0 ffff ffff ffff 44c0
00000030: 3233 3333 33b3 44c0 6566 6666 6666 44c0
00000040: 9899 9999 9919 44c0 cbcc cccc cccc 43c0
00000050: feff ffff ff7f 43c0 3133 3333 3333 43c0
00000060: 6466 6666 66e6 42c0 9799 9999 9999 42c0
00000070: cacc cccc cc4c 42c0 fdff ffff ffff 41c0
00000080: 3033 3333 33b3 41c0 6366 6666 6666 41c0
00000090: 9699 9999 9919 41c0 c9cc cccc cccc 40c0
000000a0: fcff ffff ff7f 40c0 2f33 3333 3333 40c0
000000b0: c4cc cccc cccc 3fc0 2a33 3333 3333 3fc0
000000c0: 9099 9999 9999 3ec0 f6ff ffff ffff 3dc0
000000d0: 5c66 6666 6666 3dc0 c2cc cccc cccc 3cc0
000000e0: 2833 3333 3333 3cc0 8e99 9999 9999 3bc0
000000f0: f4ff ffff ffff 3ac0 5a66 6666 6666 3ac0
00000100: c0cc cccc cccc 39c0 2633 3333 3333 39c0
00000110: 8c99 9999 9999 38c0 f2ff ffff ffff 37c0
00000120: 5866 6666 6666 37c0 becc cccc cccc 36c0
00000130: 2433 3333 3333 36c0 8a99 9999 9999 35c0
00000140: f0ff ffff ffff 34c0 5666 6666 6666 34c0
00000150: bccc cccc cccc 33c0 2233 3333 3333 33c0
00000160: 8899 9999 9999 32c0 eeff ffff ffff 31c0
00000170: 5466 6666 6666 31c0 bacc cccc cccc 30c0
00000180: 2033 3333 3333 30c0 0c33 3333 3333 2fc0
00000190: d8ff ffff ffff 2dc0 a4cc cccc cccc 2cc0
000001a0: 7099 9999 9999 2bc0 3c66 6666 6666 2ac0
000001b0: 0833 3333 3333 29c0 d4ff ffff ffff 27c0
000001c0: a0cc cccc cccc 26c0 6c99 9999 9999 25c0
000001d0: 3866 6666 6666 24c0 0433 3333 3333 23c0
000001e0: d0ff ffff ffff 21c0 9ccc cccc cccc 20c0
000001f0: d032 3333 3333 1fc0 68cc cccc cccc 1cc0
00000200: 0066 6666 6666 1ac0 98ff ffff ffff 17c0
00000210: 3099 9999 9999 15c0 c832 3333 3333 13c0
00000220: 60cc cccc cccc 10c0 f0cb cccc cccc 0cc0
00000230: 20ff ffff ffff 07c0 5032 3333 3333 03c0
00000240: 00cb cccc cccc fcbf 6031 3333 3333 f3bf
00000250: 802f 3333 3333 e3bf 0000 0000 0000 3e3d
00000260: 0037 3333 3333 e33f
