data/RHI90_115runcolMix2_Akernel_ssrgaOri20.npz (npz, 69900 bytes, 5 tensors)

hst f8 [83, 99]
00000000: 0000 0000 0060 8340 0000 0000 00c8 8140
00000010: 0000 0000 0090 8240 0000 0000 0058 8240
00000020: 0000 0000 0088 8040 0000 0000 0010 8140
00000030: 0000 0000 0088 8340 0000 0000 0098 8640
00000040: 0000 0000 0030 7f40 0000 0000 0020 7d40
00000050: 0000 0000 0040 7840 0000 0000 0040 7b40
00000060: 0000 0000 0090 7940 0000 0000 00f0 7840
00000070: 0000 0000 00b0 7740 0000 0000 00c0 7a40
00000080: 0000 0000 0000 7d40 0000 0000 00d0 8240
00000090: 0000 0000 0050 8240 0000 0000 00b8 8140
000000a0: 0000 0000 0050 8040 0000 0000 00c0 8540
000000b0: 0000 0000 00f8 8540 0000 0000 0028 8940
000000c0: 0000 0000 00f8 8640 0000 0000 0040 8540
000000d0: 0000 0000 0000 8740 0000 0000 00f8 8340
000000e0: 0000 0000 00b0 8340 0000 0000 00e8 8540
000000f0: 0000 0000 0048 8140 0000 0000 00a8 8640
00000100: 0000 0000 0000 8940 0000 0000 0038 8940
00000110: 0000 0000 0058 8f40 0000 0000 0080 9240
00000120: 0000 0000 0008 8940 0000 0000 0030 9040
00000130: 0000 0000 00f8 8f40 0000 0000 00b8 9140
00000140: 0000 0000 0044 9540 0000 0000 0068 9640
00000150: 0000 0000 0090 9140 0000 0000 00f8 8b40
00000160: 0000 0000 0014 9440 0000 0000 0040 9740
00000170: 0000 0000 0044 9c40 0000 0000 00a0 9540
00000180: 0000 0000 0018 9740 0000 0000 00e4 9540
00000190: 0000 0000 00b8 9340 0000 0000 0070 9840
000001a0: 0000 0000 0020 9840 0000 0000 00d0 9340
000001b0: 0000 0000 00c0 8840 0000 0000 0090 8640
000001c0: 0000 0000 0048 9240 0000 0000 00d8 9040
000001d0: 0000 0000 0070 8f40 0000 0000 0028 8840
000001e0: 0000 0000 00e0 7c40 0000 0000 00a0 7740
000001f0: 0000 0000 00f0 7b40 0000 0000 00c0 6940
00000200: 0000 0000 00e0 7840 0000 0000 00a0 6f40
00000210: 0000 0000 0020 6d40 0000 0000 0070 7940
00000220: 0000 0000 0050 7940 0000 0000 0040 7c40
00000230: 0000 0000 0080 7140 0000 0000 0040 7340
00000240: 0000 0000 0030 7140 0000 0000 0020 7140
00000250: 0000 0000 00e0 6240 0000 0000 0080 5940
00000260: 0000 0000 0000 5b40 0000 0000 00c0 5940
00000270: 0000 0000 0040 6140 0000 0000 0060 6140
00000280: 0000 0000 0000 6440 0000 0000 0080 5e40
00000290: 0000 0000 0040 5a40 0000 0000 0000 6040
000002a0: 0000 0000 0020 6040 0000 0000 0080 5840
000002b0: 0000 0000 0040 5640 0000 0000 0040 5740
000002c0: 0000 0000 0060 6040 0000 0000 0000 4b40
000002d0: 0000 0000 0080 4b40 0000 0000 00c0 5040
000002e0: 0000 0000 0080 5140 0000 0000 0000 3b40
000002f0: 0000 0000 0000 4140 0000 0000 0080 4540
00000300: 0000 0000 0000 2c40 0000 0000 0000 2040
00000310: 0000 0000 0000 1c40 0000 0000 0030 7c40
00000320: 0000 0000 0040 7c40 0000 0000 0050 7e40
00000330: 0000 0000 0040 7e40 0000 0000 00b0 7e40
00000340: 0000 0000 0040 7e40 0000 0000 0060 8240
00000350: 0000 0000 00a8 8140 0000 0000 0038 8140
00000360: 0000 0000 00c8 8240 0000 0000 0010 8240
00000370: 0000 0000 0030 7c40 0000 0000 0030 7f40
00000380: 0000 0000 0040 7d40 0000 0000 0080 8140
00000390: 0000 0000 00c0 8940 0000 0000 0038 8a40
000003a0: 0000 0000 00d8 8e40 0000 0000 00b0 8740
000003b0: 0000 0000 00c8 8440 0000 0000 0080 8240
000003c0: 0000 0000 00b0 8540 0000 0000 00f0 8740
000003d0: 0000 0000 0090 8840 0000 0000 00c0 8a40
000003e0: 0000 0000 0030 8a40 0000 0000 0020 8740
000003f0: 0000 0000 0050 8640 0000 0000 0048 8540
00000400: 0000 0000 0080 8340 0000 0000 0090 8640
00000410: 0000 0000 00b0 8440 0000 0000 0070 8640
00000420: 0000 0000 00b8 8740 0000 0000 0038 8b40
00000430: 0000 0000 0070 9040 0000 0000 00a0 8e40
00000440: 0000 0000 0048 9140 0000 0000 003c 9440
00000450: 0000 0000 004c 9840 0000 0000 0044 9140
00000460: 0000 0000 0060 9140 0000 0000 00bc 9540
00000470: 0000 0000 00d4 9a40 0000 0000 0058 9840
00000480: 0000 0000 002c 9b40 0000 0000 007c 9740
00000490: 0000 0000 00b4 9e40 0000 0000 005a a040
000004a0: 0000 0000 00f0 9440 0000 0000 0048 9940
000004b0: 0000 0000 00d0 9740 0000 0000 0078 9840
000004c0: 0000 0000 00f0 9740 0000 0000 00bc 9a40
000004d0: 0000 0000 002c 9940 0000 0000 0024 9240
000004e0: 0000 0000 0020 9140 0000 0000 0000 8640
000004f0: 0000 0000 0090 9040 0000 0000 0048 8c40
00000500: 0000 0000 0080 8f40 0000 0000 0070 8140
00000510: 0000 0000 0090 7d40 0000 0000 0090 7f40
00000520: 0000 0000 0010 7840 0000 0000 0000 7f40
00000530: 0000 0000 00a0 7240 0000 0000 00a0 7140
00000540: 0000 0000 0050 7840 0000 0000 0040 7640
00000550: 0000 0000 0000 7440 0000 0000 0060 6b40
00000560: 0000 0000 0050 7940 0000 0000 00c0 6f40
00000570: 0000 0000 00e0 6f40 0000 0000 00c0 6d40
00000580: 0000 0000 0060 6a40 0000 0000 0000 6d40
00000590: 0000 0000 0000 4a40 0000 0000 00c0 5240
000005a0: 0000 0000 0040 5040 0000 0000 0080 5540
000005b0: 0000 0000 0080 4f40 0000 0000 0080 5040
000005c0: 0000 0000 0080 5540 0000 0000 00c0 5640
000005d0: 0000 0000 0080 5a40 0000 0000 0000 6240
000005e0: 0000 0000 0060 6740 0000 0000 00c0 5b40
000005f0: 0000 0000 0040 5140 0000 0000 0080 4d40
00000600: 0000 0000 0000 4a40 0000 0000 0000 4b40
00000610: 0000 0000 0080 4b40 0000 0000 0000 3e40
00000620: 0000 0000 0000 4240 0000 0000 0000 3840
00000630: 0000 0000 00f0 7a40 0000 0000 0070 7c40
00000640: 0000 0000 0070 7840 0000 0000 00c0 7940
00000650: 0000 0000 0030 8040 0000 0000 00e0 8040
00000660: 0000 0000 00b0 7a40 0000 0000 0060 8140
00000670: 0000 0000 00e0 7d40 0000 0000 0040 7f40
00000680: 0000 0000 00e0 8440 0000 0000 0098 8040
00000690: 0000 0000 0050 7f40 0000 0000 0040 7940
000006a0: 0000 0000 0040 7640 0000 0000 0060 7540
000006b0: 0000 0000 00e0 7540 0000 0000 0060 7940
000006c0: 0000 0000 00a0 7a40 0000 0000 0080 7e40
000006d0: 0000 0000 0020 7940 0000 0000 0010 7b40
000006e0: 0000 0000 0088 8040 0000 0000 0040 7c40
000006f0: 0000 0000 0070 7d40 0000 0000 0090 8140
00000700: 0000 0000 0020 8040 0000 0000 00d8 8440
00000710: 0000 0000 00b0 8840 0000 0000 0050 8c40
00000720: 0000 0000 0038 8a40 0000 0000 0098 8f40
00000730: 0000 0000 00e8 8d40 0000 0000 0080 9140
00000740: 0000 0000 00b0 9340 0000 0000 00f8 9540
00000750: 0000 0000 00d8 8f40 0000 0000 0020 9140
00000760: 0000 0000 009c 9340 0000 0000 00d4 9640
00000770: 0000 0000 0088 9840 0000 0000 0084 9640
00000780: 0000 0000 0018 9140 0000 0000 0084 9440
00000790: 0000 0000 006c 9c40 0000 0000 0064 9a40
000007a0: 0000 0000 0094 9340 0000 0000 001c 9340
000007b0: 0000 0000 000c 9740 0000 0000 0004 9a40
000007c0: 0000 0000 0028 9140 0000 0000 0008 8740
000007d0: 0000 0000 0018 8d40 0000 0000 002c 9340
000007e0: 0000 0000 0010 8b40 0000 0000 0050 8340
000007f0: 0000 0000 0088 8240 0000 0000 00c0 8140
620.0 569.0 594.0 587.0 529.0 546.0 625.0 723.0
499.0 466.0 388.0 436.0 409.0 399.0 379.0 428.0
464.0 602.0 586.0 567.0 522.0 696.0 703.0 805.0
735.0 680.0 736.0 639.0 630.0 701.0 553.0 725.0
800.0 807.0 1003.0 1184.0 801.0 1036.0 1023.0 1134.0
1361.0 1434.0 1124.0 895.0 1285.0 1488.0 1809.0 1384.0
1478.0 1401.0 1262.0 1564.0 1544.0 1268.0 792.0 722.0
1170.0 1078.0 1006.0 773.0 462.0 378.0 447.0 206.0
398.0 253.0 233.0 407.0 405.0 452.0 280.0 308.0
275.0 274.0 151.0 102.0 108.0 103.0 138.0 139.0
160.0 122.0 105.0 128.0 129.0 98.0 89.0 93.0
131.0 54.0 55.0 67.0 70.0 27.0 34.0 43.0
14.0 8.0 7.0 451.0 452.0 485.0 484.0 491.0
484.0 588.0 565.0 551.0 601.0 578.0 451.0 499.0
468.0 560.0 824.0 839.0 987.0 758.0 665.0 592.0
694.0 766.0 786.0 856.0 838.0 740.0 714.0 681.0
624.0 722.0 662.0 718.0 759.0 871.0 1052.0 980.0
1106.0 1295.0 1555.0 1105.0 1112.0 1391.0 1717.0 1558.0
1739.0 1503.0 1965.0 2093.0 1340.0 1618.0 1524.0 1566.0
1532.0 1711.0 1611.0 1161.0 1096.0 704.0 1060.0 905.0
1008.0 558.0 473.0 505.0 385.0 496.0 298.0 282.0
389.0 356.0 320.0 219.0 405.0 254.0 255.0 238.0
211.0 232.0 52.0 75.0 65.0 86.0 63.0 66.0
86.0 91.0 106.0 144.0 187.0 111.0 69.0 59.0
52.0 54.0 55.0 30.0 36.0 24.0 431.0 455.0
391.0 412.0 518.0 540.0 427.0 556.0 478.0 500.0
668.0 531.0 501.0 404.0 356.0 342.0 350.0 406.0
426.0 488.0 402.0 433.0 529.0 452.0 471.0 562.0
516.0 667.0 790.0 906.0 839.0 1011.0 957.0 1120.0
1260.0 1406.0 1019.0 1096.0 1255.0 1461.0 1570.0 1441.0
1094.0 1313.0 1819.0 1689.0 1253.0 1223.0 1475.0 1665.0
1098.0 737.0 931.0 1227.0 866.0 618.0 593.0 568.0

xcenter f8 [99]
00000000: 52a0 d6af 1488 5640 f8e0 830f 3e98 5640
00000010: 9e21 316f 67a8 5640 4362 dece 90b8 5640
00000020: e8a2 8b2e bac8 5640 8ee3 388e e3d8 5640
00000030: 3424 e6ed 0ce9 5640 d964 934d 36f9 5640
00000040: 7ea5 40ad 5f09 5740 24e6 ed0c 8919 5740
00000050: ca26 9b6c b229 5740 6f67 48cc db39 5740
00000060: 14a8 f52b 054a 5740 bae8 a28b 2e5a 5740
00000070: 6029 50eb 576a 5740 056a fd4a 817a 5740
00000080: aaaa aaaa aa8a 5740 50eb 570a d49a 5740
00000090: f62b 056a fdaa 5740 9b6c b2c9 26bb 5740
000000a0: 40ad 5f29 50cb 5740 e6ed 0c89 79db 5740
000000b0: 8c2e bae8 a2eb 5740 316f 6748 ccfb 5740
000000c0: d6af 14a8 f50b 5840 7cf0 c107 1f1c 5840
000000d0: 2231 6f67 482c 5840 c771 1cc7 713c 5840
000000e0: 6cb2 c926 9b4c 5840 12f3 7686 c45c 5840
000000f0: b833 24e6 ed6c 5840 5d74 d145 177d 5840
00000100: 02b5 7ea5 408d 5840 a8f5 2b05 6a9d 5840
00000110: 4e36 d964 93ad 5840 f376 86c4 bcbd 5840
00000120: 98b7 3324 e6cd 5840 3ef8 e083 0fde 5840
00000130: e438 8ee3 38ee 5840 8979 3b43 62fe 5840
00000140: 2eba e8a2 8b0e 5940 d4fa 9502 b51e 5940
00000150: 7a3b 4362 de2e 5940 1f7c f0c1 073f 5940
00000160: c4bc 9d21 314f 5940 6afd 4a81 5a5f 5940
00000170: 103e f8e0 836f 5940 b57e a540 ad7f 5940
00000180: 5abf 52a0 d68f 5940 0000 0000 00a0 5940
00000190: a640 ad5f 29b0 5940 4b81 5abf 52c0 5940
000001a0: f0c1 071f 7cd0 5940 9602 b57e a5e0 5940
000001b0: 3c43 62de cef0 5940 e183 0f3e f800 5a40
000001c0: 86c4 bc9d 2111 5a40 2c05 6afd 4a21 5a40
000001d0: d245 175d 7431 5a40 7786 c4bc 9d41 5a40
000001e0: 1cc7 711c c751 5a40 c207 1f7c f061 5a40
000001f0: 6848 ccdb 1972 5a40 0d89 793b 4382 5a40
00000200: b2c9 269b 6c92 5a40 580a d4fa 95a2 5a40
00000210: fe4a 815a bfb2 5a40 a38b 2eba e8c2 5a40
00000220: 48cc db19 12d3 5a40 ee0c 8979 3be3 5a40
00000230: 944d 36d9 64f3 5a40 398e e338 8e03 5b40
00000240: dece 9098 b713 5b40 840f 3ef8 e023 5b40
00000250: 2a50 eb57 0a34 5b40 cf90 98b7 3344 5b40
00000260: 74d1 4517 5d54 5b40 1a12 f376 8664 5b40
00000270: c052 a0d6 af74 5b40 6593 4d36 d984 5b40
00000280: 0ad4 fa95 0295 5b40 b014 a8f5 2ba5 5b40
00000290: 5655 5555 55b5 5b40 fb95 02b5 7ec5 5b40
000002a0: a0d6 af14 a8d5 5b40 4617 5d74 d1e5 5b40
000002b0: ec57 0ad4 faf5 5b40 9198 b733 2406 5c40
000002c0: 36d9 6493 4d16 5c40 dc19 12f3 7626 5c40
000002d0: 825a bf52 a036 5c40 279b 6cb2 c946 5c40
000002e0: ccdb 1912 f356 5c40 721c c771 1c67 5c40
000002f0: 185d 74d1 4577 5c40 bd9d 2131 6f87 5c40
00000300: 62de ce90 9897 5c40 081f 7cf0 c1a7 5c40
00000310: ad5f 2950 ebb7 5c40
90.12626262626262 90.37878787878788 90.63131313131314 90.88383838383838 91.13636363636363 91.38888888888889 91.64141414141415 91.89393939393939
92.14646464646464 92.3989898989899 92.65151515151516 92.9040404040404 93.15656565656565 93.4090909090909 93.66161616161617 93.91414141414141
94.16666666666666 94.41919191919192 94.67171717171718 94.92424242424242 95.17676767676767 95.42929292929293 95.68181818181819 95.93434343434343
96.18686868686868 96.43939393939394 96.6919191919192 96.94444444444444 97.19696969696969 97.44949494949495 97.70202020202021 97.95454545454545
98.2070707070707 98.45959595959596 98.71212121212122 98.96464646464646 99.21717171717171 99.46969696969697 99.72222222222223 99.97474747474747
100.22727272727272 100.47979797979798 100.73232323232324 100.98484848484848 101.23737373737373 101.48989898989899 101.74242424242425 101.9949494949495
102.24747474747474 102.5 102.75252525252526 103.0050505050505 103.25757575757575 103.51010101010101 103.76262626262627 104.01515151515152
104.26767676767676 104.52020202020202 104.77272727272728 105.02525252525253 105.27777777777777 105.53030303030303 105.78282828282829 106.03535353535354
106.28787878787878 106.54040404040404 106.7929292929293 107.04545454545455 107.29797979797979 107.55050505050505 107.80303030303031 108.05555555555556
108.3080808080808 108.56060606060606 108.81313131313132 109.06565656565657 109.31818181818181 109.57070707070707 109.82323232323233 110.07575757575758
110.32828282828282 110.58080808080808 110.83333333333334 111.08585858585859 111.33838383838383 111.5909090909091 111.84343434343435 112.0959595959596
112.34848484848484 112.6010101010101 112.85353535353536 113.10606060606061 113.35858585858585 113.61111111111111 113.86363636363637 114.11616161616162
114.36868686868686 114.62121212121212 114.87373737373737

ycenter f8 [83]
00000000: 9a99 9999 99d9 43c0 cccc cccc cc8c 43c0
00000010: 0000 0000 0040 43c0 3233 3333 33f3 42c0
00000020: 6666 6666 66a6 42c0 9899 9999 9959 42c0
00000030: cccc cccc cc0c 42c0 feff ffff ffbf 41c0
00000040: 3233 3333 3373 41c0 6466 6666 6626 41c0
00000050: 9899 9999 99d9 40c0 cacc cccc cc8c 40c0
00000060: feff ffff ff3f 40c0 6166 6666 66e6 3fc0
00000070: c7cc cccc cc4c 3fc0 2d33 3333 33b3 3ec0
00000080: 9399 9999 9919 3ec0 f9ff ffff ff7f 3dc0
00000090: 5f66 6666 66e6 3cc0 c5cc cccc cc4c 3cc0
000000a0: 2b33 3333 33b3 3bc0 9199 9999 9919 3bc0
000000b0: f7ff ffff ff7f 3ac0 5d66 6666 66e6 39c0
000000c0: c3cc cccc cc4c 39c0 2933 3333 33b3 38c0
000000d0: 8f99 9999 9919 38c0 f5ff ffff ff7f 37c0
000000e0: 5b66 6666 66e6 36c0 c1cc cccc cc4c 36c0
000000f0: 2733 3333 33b3 35c0 8d99 9999 9919 35c0
00000100: f3ff ffff ff7f 34c0 5966 6666 66e6 33c0
00000110: bfcc cccc cc4c 33c0 2533 3333 33b3 32c0
00000120: 8b99 9999 9919 32c0 f1ff ffff ff7f 31c0
00000130: 5766 6666 66e6 30c0 bdcc cccc cc4c 30c0
00000140: 4666 6666 6666 2fc0 1233 3333 3333 2ec0
00000150: deff ffff ffff 2cc0 aacc cccc cccc 2bc0
00000160: 7699 9999 9999 2ac0 4266 6666 6666 29c0
00000170: 0e33 3333 3333 28c0 daff ffff ffff 26c0
00000180: a6cc cccc cccc 25c0 7299 9999 9999 24c0
00000190: 3e66 6666 6666 23c0 0a33 3333 3333 22c0
000001a0: d6ff ffff ffff 20c0 4499 9999 9999 1fc0
000001b0: dc32 3333 3333 1dc0 74cc cccc cccc 1ac0
000001c0: 0c66 6666 6666 18c0 a4ff ffff ffff 15c0
000001d0: 3c99 9999 9999 13c0 d432 3333 3333 11c0
000001e0: d898 9999 9999 0dc0 08cc cccc cccc 08c0
000001f0: 38ff ffff ffff 03c0 d064 6666 6666 febf
00000200: 30cb cccc cccc f4bf 2063 6666 6666 e6bf
00000210: 007f 9999 9999 b9bf 6003 0000 0000 e03f
00000220: 509b 9999 9999 f13f f034 3333 3333 fb3f
00000230: 4867 6666 6666 0240 1834 3333 3333 0740
00000240: e800 0000 0000 0c40 dc66 6666 6666 1040
00000250: 44cd cccc cccc 1240 ac33 3333 3333 1540
00000260: 149a 9999 9999 1740 7c00 0000 0000 1a40
00000270: e466 6666 6666 1c40 4ccd cccc cccc 1e40
00000280: da99 9999 9999 2040 0ecd cccc cccc 2140
00000290: 4200 0000 0000 2340
-39.7 -39.099999999999994 -38.5 -37.89999999999999 -37.3 -36.69999999999999 -36.099999999999994 -35.499999999999986
-34.89999999999999 -34.29999999999998 -33.69999999999999 -33.09999999999998 -32.499999999999986 -31.89999999999998 -31.29999999999998 -30.699999999999978
-30.099999999999977 -29.499999999999975 -28.899999999999974 -28.299999999999972 -27.69999999999997 -27.09999999999997 -26.499999999999968 -25.899999999999967
-25.299999999999965 -24.699999999999964 -24.099999999999962 -23.49999999999996 -22.89999999999996 -22.299999999999958 -21.699999999999957 -21.099999999999955
-20.499999999999954 -19.899999999999952 -19.29999999999995 -18.69999999999995 -18.099999999999948 -17.499999999999947 -16.899999999999945 -16.299999999999944
-15.699999999999942 -15.099999999999941 -14.49999999999994 -13.899999999999938 -13.299999999999937 -12.699999999999935 -12.099999999999934 -11.499999999999932
-10.899999999999931 -10.29999999999993 -9.699999999999928 -9.099999999999927 -8.499999999999925 -7.899999999999924 -7.2999999999999226 -6.699999999999921
-6.09999999999992 -5.499999999999918 -4.899999999999917 -4.2999999999999154 -3.699999999999914 -3.0999999999999126 -2.499999999999911 -1.8999999999999098
-1.2999999999999083 -0.6999999999999069 -0.0999999999999055 0.5000000000000959 1.1000000000000973 1.7000000000000988 2.3000000000001 2.9000000000001016
3.500000000000103 4.1000000000001044 4.700000000000106 5.300000000000107 5.900000000000109 6.50000000000011 7.1000000000001116 7.700000000000113
8.300000000000114 8.900000000000116 9.500000000000117

xedge f8 [100]
00000000: 0000 0000 0080 5640 a540 ad5f 2990 5640
00000010: 4b81 5abf 52a0 5640 f0c1 071f 7cb0 5640
00000020: 9602 b57e a5c0 5640 3b43 62de ced0 5640
00000030: e183 0f3e f8e0 5640 86c4 bc9d 21f1 5640
00000040: 2c05 6afd 4a01 5740 d145 175d 7411 5740
00000050: 7786 c4bc 9d21 5740 1cc7 711c c731 5740
00000060: c207 1f7c f041 5740 6748 ccdb 1952 5740
00000070: 0d89 793b 4362 5740 b2c9 269b 6c72 5740
00000080: 580a d4fa 9582 5740 fd4a 815a bf92 5740
00000090: a38b 2eba e8a2 5740 48cc db19 12b3 5740
000000a0: ee0c 8979 3bc3 5740 934d 36d9 64d3 5740
000000b0: 398e e338 8ee3 5740 dece 9098 b7f3 5740
000000c0: 840f 3ef8 e003 5840 2950 eb57 0a14 5840
000000d0: cf90 98b7 3324 5840 74d1 4517 5d34 5840
000000e0: 1a12 f376 8644 5840 bf52 a0d6 af54 5840
000000f0: 6593 4d36 d964 5840 0ad4 fa95 0275 5840
00000100: b014 a8f5 2b85 5840 5555 5555 5595 5840
00000110: fb95 02b5 7ea5 5840 a0d6 af14 a8b5 5840
00000120: 4617 5d74 d1c5 5840 eb57 0ad4 fad5 5840
00000130: 9198 b733 24e6 5840 36d9 6493 4df6 5840
00000140: dc19 12f3 7606 5940 815a bf52 a016 5940
00000150: 279b 6cb2 c926 5940 ccdb 1912 f336 5940
00000160: 721c c771 1c47 5940 175d 74d1 4557 5940
00000170: bd9d 2131 6f67 5940 62de ce90 9877 5940
00000180: 081f 7cf0 c187 5940 ad5f 2950 eb97 5940
00000190: 53a0 d6af 14a8 5940 f8e0 830f 3eb8 5940
000001a0: 9e21 316f 67c8 5940 4362 dece 90d8 5940
000001b0: e9a2 8b2e bae8 5940 8ee3 388e e3f8 5940
000001c0: 3424 e6ed 0c09 5a40 d964 934d 3619 5a40
000001d0: 7fa5 40ad 5f29 5a40 24e6 ed0c 8939 5a40
000001e0: ca26 9b6c b249 5a40 6f67 48cc db59 5a40
000001f0: 15a8 f52b 056a 5a40 bae8 a28b 2e7a 5a40
00000200: 6029 50eb 578a 5a40 056a fd4a 819a 5a40
00000210: abaa aaaa aaaa 5a40 50eb 570a d4ba 5a40
00000220: f62b 056a fdca 5a40 9b6c b2c9 26db 5a40
00000230: 41ad 5f29 50eb 5a40 e6ed 0c89 79fb 5a40
00000240: 8c2e bae8 a20b 5b40 316f 6748 cc1b 5b40
00000250: d7af 14a8 f52b 5b40 7cf0 c107 1f3c 5b40
00000260: 2231 6f67 484c 5b40 c771 1cc7 715c 5b40
00000270: 6db2 c926 9b6c 5b40 12f3 7686 c47c 5b40
00000280: b833 24e6 ed8c 5b40 5d74 d145 179d 5b40
00000290: 03b5 7ea5 40ad 5b40 a8f5 2b05 6abd 5b40
000002a0: 4e36 d964 93cd 5b40 f376 86c4 bcdd 5b40
000002b0: 99b7 3324 e6ed 5b40 3ef8 e083 0ffe 5b40
000002c0: e438 8ee3 380e 5c40 8979 3b43 621e 5c40
000002d0: 2fba e8a2 8b2e 5c40 d4fa 9502 b53e 5c40
000002e0: 7a3b 4362 de4e 5c40 1f7c f0c1 075f 5c40
000002f0: c5bc 9d21 316f 5c40 6afd 4a81 5a7f 5c40
00000300: 103e f8e0 838f 5c40 b57e a540 ad9f 5c40
00000310: 5abf 52a0 d6af 5c40 0000 0000 00c0 5c40
90.0 90.25252525252525 90.5050505050505 90.75757575757575 91.01010101010101 91.26262626262626 91.51515151515152 91.76767676767676
92.02020202020202 92.27272727272727 92.52525252525253 92.77777777777777 93.03030303030303 93.28282828282828 93.53535353535354 93.78787878787878
94.04040404040404 94.29292929292929 94.54545454545455 94.79797979797979 95.05050505050505 95.3030303030303 95.55555555555556 95.8080808080808
96.06060606060606 96.31313131313131 96.56565656565657 96.81818181818181 97.07070707070707 97.32323232323232 97.57575757575758 97.82828282828282
98.08080808080808 98.33333333333333 98.58585858585859 98.83838383838383 99.0909090909091 99.34343434343434 99.5959595959596 99.84848484848484
100.1010101010101 100.35353535353535 100.60606060606061 100.85858585858585 101.11111111111111 101.36363636363636 101.61616161616162 101.86868686868686
102.12121212121212 102.37373737373737 102.62626262626263 102.87878787878788 103.13131313131314 103.38383838383838 103.63636363636364 103.88888888888889
104.14141414141415 104.39393939393939 104.64646464646465 104.8989898989899 105.15151515151516 105.4040404040404 105.65656565656566 105.9090909090909
106.16161616161617 106.41414141414141 106.66666666666667 106.91919191919192 107.17171717171718 107.42424242424242 107.67676767676768 107.92929292929293
108.18181818181819 108.43434343434343 108.68686868686869 108.93939393939394 109.1919191919192 109.44444444444444 109.6969696969697 109.94949494949495
110.20202020202021 110.45454545454545 110.70707070707071 110.95959595959596 111.21212121212122 111.46464646464646 111.71717171717172 111.96969696969697
112.22222222222223 112.47474747474747 112.72727272727273 112.97979797979798 113.23232323232324 113.48484848484848 113.73737373737374 113.98989898989899
114.24242424242425 114.4949494949495 114.74747474747474 115.0

yedge f8 [84]
00000000: 0000 0000 0000 44c0 3333 3333 33b3 43c0
00000010: 6666 6666 6666 43c0 9999 9999 9919 43c0
00000020: cccc cccc cccc 42c0 ffff ffff ff7f 42c0
00000030: 3233 3333 3333 42c0 6566 6666 66e6 41c0
00000040: 9899 9999 9999 41c0 cbcc cccc cc4c 41c0
00000050: feff ffff ffff 40c0 3133 3333 33b3 40c0
00000060: 6466 6666 6666 40c0 9799 9999 9919 40c0
00000070: 9499 9999 9999 3fc0 faff ffff ffff 3ec0
00000080: 6066 6666 6666 3ec0 c6cc cccc cccc 3dc0
00000090: 2c33 3333 3333 3dc0 9299 9999 9999 3cc0
000000a0: f8ff ffff ffff 3bc0 5e66 6666 6666 3bc0
000000b0: c4cc cccc cccc 3ac0 2a33 3333 3333 3ac0
000000c0: 9099 9999 9999 39c0 f6ff ffff ffff 38c0
000000d0: 5c66 6666 6666 38c0 c2cc cccc cccc 37c0
000000e0: 2833 3333 3333 37c0 8e99 9999 9999 36c0
000000f0: f4ff ffff ffff 35c0 5a66 6666 6666 35c0
00000100: c0cc cccc cccc 34c0 2633 3333 3333 34c0
00000110: 8c99 9999 9999 33c0 f2ff ffff ffff 32c0
00000120: 5866 6666 6666 32c0 becc cccc cccc 31c0
00000130: 2433 3333 3333 31c0 8a99 9999 9999 30c0
00000140: e0ff ffff ffff 2fc0 accc cccc cccc 2ec0
00000150: 7899 9999 9999 2dc0 4466 6666 6666 2cc0
00000160: 1033 3333 3333 2bc0 dcff ffff ffff 29c0
00000170: a8cc cccc cccc 28c0 7499 9999 9999 27c0
00000180: 4066 6666 6666 26c0 0c33 3333 3333 25c0
00000190: d8ff ffff ffff 23c0 a4cc cccc cccc 22c0
000001a0: 7099 9999 9999 21c0 3c66 6666 6666 20c0
000001b0: 1066 6666 6666 1ec0 a8ff ffff ffff 1bc0
000001c0: 4099 9999 9999 19c0 d832 3333 3333 17c0
000001d0: 70cc cccc cccc 14c0 0866 6666 6666 12c0
000001e0: 40ff ffff ffff 0fc0 7032 3333 3333 0bc0
000001f0: a065 6666 6666 06c0 d098 9999 9999 01c0
00000200: 0098 9999 9999 f9bf c0fc ffff ffff efbf
00000210: 0093 9999 9999 d9bf 00a7 9999 9999 c93f
00000220: 009d 9999 9999 e93f 2068 6666 6666 f63f
00000230: e000 0000 0000 0040 b0cd cccc cccc 0440
00000240: 809a 9999 9999 0940 5067 6666 6666 0e40
00000250: 109a 9999 9999 1140 7800 0000 0000 1440
00000260: e066 6666 6666 1640 48cd cccc cccc 1840
00000270: b033 3333 3333 1b40 189a 9999 9999 1d40
00000280: 4000 0000 0000 2040 7433 3333 3333 2140
00000290: a866 6666 6666 2240 dc99 9999 9999 2340
-40.0 -39.4 -38.8 -38.199999999999996 -37.599999999999994 -36.99999999999999 -36.39999999999999 -35.79999999999999
-35.19999999999999 -34.59999999999999 -33.999999999999986 -33.399999999999984 -32.79999999999998 -32.19999999999998 -31.59999999999998 -30.99999999999998
-30.399999999999977 -29.799999999999976 -29.199999999999974 -28.599999999999973 -27.99999999999997 -27.39999999999997 -26.79999999999997 -26.199999999999967
-25.599999999999966 -24.999999999999964 -24.399999999999963 -23.79999999999996 -23.19999999999996 -22.59999999999996 -21.999999999999957 -21.399999999999956
-20.799999999999955 -20.199999999999953 -19.59999999999995 -18.99999999999995 -18.39999999999995 -17.799999999999947 -17.199999999999946 -16.599999999999945
-15.999999999999943 -15.399999999999942 -14.79999999999994 -14.199999999999939 -13.599999999999937 -12.999999999999936 -12.399999999999935 -11.799999999999933
-11.199999999999932 -10.59999999999993 -9.999999999999929 -9.399999999999928 -8.799999999999926 -8.199999999999925 -7.599999999999923 -6.999999999999922
-6.39999999999992 -5.799999999999919 -5.199999999999918 -4.599999999999916 -3.9999999999999147 -3.3999999999999133 -2.799999999999912 -2.1999999999999105
-1.599999999999909 -0.9999999999999076 -0.3999999999999062 0.2000000000000952 0.8000000000000966 1.400000000000098 2.0000000000000995 2.600000000000101
3.2000000000001023 3.8000000000001037 4.400000000000105 5.000000000000107 5.600000000000108 6.200000000000109 6.800000000000111 7.400000000000112
8.000000000000114 8.600000000000115 9.200000000000117 9.800000000000118
